data.pth (torch, 11498 bytes, 6 tensors)

l1.weight f4 [8, 176]
000000 22 af bf 3e f7 11 e2 bd c2 bb 42 be 3b 29 8f 3e
       0.37438303 -0.11038583 -0.19016936 0.27961144
000010 ec 38 b6 3e 4c 94 0b 3f 63 d6 84 be 16 b0 cb 3c
       0.35590303 0.5452316 -0.25944814 0.024864238
000020 64 25 00 bf 8d 89 10 3f 2f e8 20 bd ec 18 43 3f
       -0.50057054 0.56459886 -0.039283928 0.762099
000030 00 33 b1 3e 2e 52 20 3f d9 63 da bd 5b a2 ae 3e
       0.34609222 0.62625396 -0.10663576 0.34108242
000040 5c 7d e2 be 47 6a a0 be 7c 63 07 3e 98 0e a2 be
       -0.44236267 -0.31331083 0.13221544 -0.3165176
000050 f8 8f 8d 3c 6b 93 c4 3e 89 ae 79 be d3 f4 d9 3d
       0.017280564 0.3839372 -0.24382986 0.106424
000060 bf 6b 38 3d 99 73 13 bf c1 b7 e7 3d 08 bc 10 be
       0.04502463 -0.57598263 0.11314345 -0.14134228
000070 00 31 a1 3e b7 b0 12 3f dd 7c 96 3e dc 21 bd be
       0.31482697 0.57300895 0.29392138 -0.36939895
000080 0a 21 1c be 81 a8 4e 3c 67 e2 3a be 1d 43 fb 3d
       -0.15246978 0.012613417 -0.18250428 0.1226866
000090 a7 53 0b 3f 85 c5 bd be ff ff 62 3d d0 67 00 3f
       0.5442452 -0.37064758 0.05541992 0.50158405
0000a0 3e 02 61 be 68 a4 f6 be 94 bc 1c 3f 97 d4 1f 3e
       -0.21973512 -0.48172307 0.6122525 0.1560844
0000b0 e0 68 a8 3e d8 09 47 bd 8e 44 cc be c6 af 23 3f
       0.32892513 -0.048593372 -0.39896053 0.63940084
0000c0 f2 1c 57 3d 27 0b 95 3d 03 50 df be b8 ca 8b 3d
       0.05251784 0.07277518 -0.43615732 0.06825775
0000d0 3f 16 10 3f 12 86 90 3e b3 5e b5 3e bc 83 90 be
       0.56283945 0.28227288 0.35423812 -0.28225505
0000e0 a2 91 ea bd 3e 3b d5 3e 65 d8 23 3f d1 bd 2f 3d
       -0.114535585 0.4164676 0.64002067 0.042905632
0000f0 e4 92 6c 3e 5a 6c f8 3e 6d af aa 3e f0 d1 d5 3e
       0.2310291 0.48520166 0.33336964 0.41761732
000100 79 a5 19 3f b3 78 92 be 9a a3 0d bd 9c c8 27 3f
       0.60018116 -0.2860771 -0.03457985 0.6554048
000110 a0 cd 04 bf 7b 26 23 be 20 f0 98 be 92 2c 5b 3f
       -0.5187626 -0.15932648 -0.298707 0.85614884
000120 91 d5 ce 3e 14 e7 03 3f c0 d1 53 3f 1b aa 07 3f
       0.40397313 0.5152447 0.8274193 0.52993935
000130 df e4 75 3e 48 0e 4a 3f f9 c8 4c 3f 6f 44 d0 bd
       0.24013089 0.7892804 0.7999416 -0.10169303
000140 ec 83 47 3e 65 be ff 3e 43 d3 29 be 89 ef a3 3e
       0.19483918 0.49949947 -0.16584496 0.32018688
000150 da b0 01 bf 89 e3 87 3e b6 97 76 be b8 f2 dc be
       -0.5066048 0.26540783 -0.2408131 -0.4315393
000160 b1 3e ce bd 7c df e0 3e cc 43 42 3e b9 f1 92 be
       -0.10070551 0.43920505 0.18971175 -0.28700045
000170 68 2a 1f be 86 e4 08 3f c8 0d 62 be d3 f2 58 3e
       -0.1554352 0.534737 -0.2207557 0.2118638
000180 5c 45 b9 be a9 12 fc 3e 1e b3 4c 3e 08 13 b7 be
       -0.3618573 0.49232987 0.19990203 -0.35756707
000190 49 81 7b be ea 8d 5d 3e 3b d7 18 bf 0c af 2c 3f
       -0.24561037 0.21636167 -0.59703416 0.674546
0001a0 1b 2d 3c be 27 81 be 3e d3 02 ff bd 47 11 95 be
       -0.18376581 0.3720791 -0.124517106 -0.29114744
0001b0 18 e5 08 bf f2 4a 46 3e d6 bf 96 be 7a 99 4d 3d
       -0.5347457 0.19364527 -0.29443234 0.050195195
0001c0 e7 2d 75 3e 62 ed 41 3e 6c a9 93 3e ac e6 a4 bc
       0.23943292 0.1893821 0.28840196 -0.020129524
0001d0 57 d6 95 3e 14 4f 94 be bd be d6 be fd a4 aa 3e
       0.2926509 -0.28966582 -0.41942397 0.33329
0001e0 31 35 92 be 49 4e 11 be 95 17 a1 be fc 4c c4 bc
       -0.28556207 -0.1419002 -0.31463304 -0.02396249
0001f0 b2 05 6b be cd b5 1a bd 70 0a c4 3e 78 87 9f be
       -0.22951391 -0.037771035 0.38289213 -0.31158042
000200 44 04 11 bf 70 bd 8b be d8 07 46 bd b7 24 e0 be
       -0.56647134 -0.27292967 -0.048347324 -0.4377801
000210 fb 27 43 be 2a a6 ea be 49 0b b9 be 51 54 6c 3e
       -0.1905822 -0.45829898 -0.36141422 0.23079039
000220 a2 d9 71 3e d0 3b 0d 3e 20 23 01 3e b0 88 6a be
       0.23618177 0.13792348 0.12611055 -0.22903705
000230 7b 7b df be a3 c8 a2 3e 18 5b 09 be e0 a8 56 3f
       -0.43648896 0.317937 -0.13413656 0.8385143
000240 29 ea 87 be 8b 75 7b be 69 1a 1a 3e 97 db 29 be
       -0.26545838 -0.24556558 0.15049137 -0.16587673
000250 36 3a b9 3e e9 7e c7 be 3e 59 7c 3f 70 3f 13 3e
       0.36177224 -0.38964012 0.9857367 0.14379668
000260 f7 a9 80 be 9e 5b e5 3e b1 7d 48 3f 11 0c 8a 3e
       -0.25129673 0.4479646 0.7831679 0.2696233
000270 68 ca 55 bf 3d f9 79 be 3f 19 af 3e 0e ff 66 be
       -0.8351197 -0.24411483 0.3419895 -0.22558233
000280 4f 8f 03 3e ae 9a 14 3f fe d7 a5 be 6f cc c0 bd
       0.12847637 0.5804852 -0.3239135 -0.094139926
000290 d6 7b d8 be 07 14 78 be d5 cf 60 3e a7 4e 83 3e
       -0.4228198 -0.2422639 0.21954282 0.25645944
0002a0 27 e1 2f 3e 3e e4 43 be b2 58 ba 3e 00 9e f6 3e
       0.17175733 -0.19130036 0.36395794 0.4816742
0002b0 bd 35 ae bd d5 53 ab be fc ed 0c 3f 9b f1 f9 bc
       -0.085063435 -0.33462396 0.55050635 -0.030510714
0002c0 32 6c 4e 3d 8e 82 f1 be 0b bc 27 3e e1 be dd 3e
       0.05039615 -0.47169918 0.16380326 0.43309692
0002d0 d0 c8 d0 3e b1 b0 ae 3c 0b e4 87 be ef 77 b0 3e
       0.40778208 0.021324487 -0.2654117 0.34466502
0002e0 c2 e5 f2 be b4 9d 53 3e 32 7e 95 3e 2a 9b 55 3f
       -0.47440916 0.20665628 0.29197842 0.83439887
0002f0 0f 28 16 be db c9 b6 be a6 0c 43 3e 42 a7 90 bd
       -0.14663719 -0.35700879 0.19047794 -0.07063152
000300 c2 a7 a2 be c3 2d d4 3e ce 23 b8 3e 37 65 06 3f
       -0.31768614 0.41441163 0.35964817 0.5249819
000310 83 38 b0 3e 46 b0 6d bd 91 26 a4 bd b8 49 b7 be
       0.34418115 -0.058029436 -0.080151685 -0.3579843
000320 82 2c 78 3e 66 05 73 3e 36 1e a9 be 9f b3 57 be
       0.24235728 0.23732528 -0.33030862 -0.21064614
000330 6c 3a e3 bb 1e 74 c9 3e 30 3b 1b 3e 1e 16 ed 3e
       -0.0069344547 0.39346403 0.15159297 0.46305937
000340 22 de 96 3e b5 84 9f be 6d 9b 80 3e 1b c7 bf be
       0.2946635 -0.31155935 0.2511858 -0.37456593
000350 8d 3b f7 be d4 68 06 3f 7e 04 8d be bb f6 e0 be
       -0.4828762 0.52503705 -0.2754249 -0.4393824
000360 b9 3c 2e be 88 82 9e be 63 50 9f be ed 81 3b 3e
       -0.17015351 -0.30958962 -0.31116018 0.18311282
000370 2c d3 ae bd eb 01 7b 3e a5 e7 8a 3e fc cc cf 3e
       -0.085363716 0.2451245 0.27129856 0.40586078
000380 42 cc 33 be 71 5f f8 be 32 2e bf be 0c 34 85 3e
       -0.17558387 -0.48510316 -0.37339932 0.2601627
000390 dd ee 03 3f 6f b9 b7 3e 4c 11 d0 3e 7f 51 2b be
       0.5153635 0.35883662 0.40638196 -0.16730307
0003a0 5d 88 a0 be 2b b1 10 bb 50 cf 51 be f9 36 21 3f
       -0.31354037 -0.0022078257 -0.2048924 0.62974507
0003b0 3f 8f bc 3d fd ee 60 3e 6a 10 78 3d 8c 54 fe bd
       0.092070095 0.21966167 0.06056253 -0.1241847
0003c0 1a 69 da be fa d1 63 3e 02 07 a1 be bb 56 6d bc
       -0.4265831 0.22248068 -0.3145066 -0.01448601
0003d0 63 b9 64 3e 47 29 59 be cd 6d ba be 13 a1 3b bd
       0.22336344 -0.21207152 -0.36411896 -0.04580791
0003e0 8a e4 be be ca 41 59 be 52 23 46 bd 9f 52 60 be
       -0.37283736 -0.21216503 -0.048373528 -0.21906517
0003f0 a8 24 29 3e 52 a7 46 bd 5c d0 f8 bc 9b b2 9e 3e
       0.1651789 -0.048499413 -0.030372791 0.3099564

l1.bias f4 [8]
000000 3f 4b 99 3f 7e ab 95 3f a5 85 08 3f 89 b5 36 3f
       1.1976088 1.169296 0.53328925 0.7137075
000010 60 0b 72 3f 6f e3 14 3f 8d 6a 96 3f 1c 22 8d 3f
       0.94548607 0.58159536 1.1751267 1.1026034

l2.weight f4 [8, 8]
000000 d3 80 bf 3f d5 1f 47 3f 76 f5 23 3f ac 83 d5 bf
       1.4961189 0.77782947 0.6404642 -1.6680808
000010 9b 83 4e 3f 2a f9 86 3f ad be c6 3e 6d c1 85 bf
       0.80669564 1.0544789 0.3881735 -1.0449654
000020 28 16 0b 3f 06 07 b5 3f 4d 70 c4 3f 70 c7 c0 3f
       0.5433068 1.4142768 1.5346771 1.5060863
000030 f8 51 50 be e2 ee e3 3f 0b f1 71 3f da b7 7a bf
       -0.20343769 1.7807276 0.9450843 -0.97936785
000040 9b c0 e4 3f 6c a1 bb 3d 59 3e 84 bf d6 bf f8 be
       1.7871279 0.09161648 -1.0331527 -0.4858386
000050 c8 b6 89 3e 53 43 1b bf b5 2a c8 3f cb 08 49 bc
       0.26897264 -0.60649604 1.5638033 -0.012270163
000060 64 12 15 bf 72 fb a9 3f 52 77 8a 3f fd fb 74 3f
       -0.58231187 1.327986 1.0817664 0.95697004
000070 e5 16 9e 3f be c2 be bf 1a d5 46 3f c4 b9 4e 3f
       1.2350737 -1.4903181 0.7766892 0.80752206
000080 62 11 8f 3e 43 38 ab 3f 9d 9d 0f bf 91 92 ff 3e
       0.2794295 1.3376545 -0.56099874 0.4991651
000090 74 e8 63 bf 2e 4a 8f 3f 86 13 81 3e c6 ae dc 3f
       -0.8902657 1.1194513 0.25210208 1.7240837
0000a0 20 63 c1 3e a3 cb b1 be 82 b6 48 3e f9 03 d2 be
       0.3777094 -0.34725675 0.19600871 -0.41018656
0000b0 4b 6a c7 3f 53 df 2b 3f 66 5c c1 bf 6e 1c dc 3f
       1.5579313 0.6713764 -1.5106323 1.7196176
0000c0 66 53 32 3f 03 b4 a8 bf 19 4e a3 bf 8b 65 b7 3f
       0.69658506 -1.3179935 -1.2758209 1.4327863
0000d0 43 94 8b 3e ff a0 0f 3e d4 8e bb 3f 4f 4d 9d be
       0.27261552 0.14026259 1.4652963 -0.30723044
0000e0 e1 e0 83 3d 55 d3 72 3d 88 b3 a4 3f 7a fc 37 3f
       0.064393766 0.059283573 1.2867289 0.71869624
0000f0 86 db d9 3f 33 7f e0 be 95 74 6f bf 5f c1 b1 3e
       1.7020118 -0.43847045 -0.93537265 0.34717843

l2.bias f4 [8]
000000 ac 63 11 3f 2a 66 00 bf 7c a6 56 3f d2 b9 09 3f
       0.5679271 -0.5015589 0.83847785 0.53799164
000010 cd 26 16 3f 9b df 0f 3f 3c fd b5 3e 1b d2 02 3f
       0.58652955 0.5620057 0.35544765 0.51101846

l3.weight f4 [18, 8]
000000 10 cf 12 3f 09 4e 06 be b0 0f 0f c0 02 db 41 3c
       0.573472 -0.13115706 -2.2353325 0.011832001
000010 23 e9 4b bf d5 69 17 3e ae ee fc bf 38 77 71 3e
       -0.79652613 0.14786465 -1.9760339 0.23580635
000020 3b ba 8a bf 0c d0 10 c0 fa e2 3f 3d d3 73 18 3e
       -1.0838083 -2.2626982 0.04684732 0.14887933
000030 95 fd 8d be b3 8d 59 3e 89 1b c4 bd cb 73 06 3f
       -0.2773253 0.2124546 -0.095755644 0.52520436
000040 88 2f 19 3f fa 56 01 3f db fb 57 3e f3 13 57 bf
       0.5983815 0.5052334 0.21092169 -0.84014815
000050 37 54 17 be bd e4 0d c0 46 92 bc bf 0c 8a c7 bf
       -0.14778219 -2.217086 -1.4732139 -1.5589004
000060 6b cb 03 3d 7e f3 8c bf 90 18 1a 3f 75 95 b9 3e
       0.032176416 -1.1011808 0.6019373 0.3624684
000070 7f 89 18 c0 80 16 f3 bd 11 51 13 3e 3f af 47 bb
       -2.383392 -0.11869526 0.14386393 -0.0030469445
000080 e1 b3 39 3e c3 64 33 bb c9 98 3a 3f ea 11 d0 bf
       0.18135025 -0.002737329 0.7288938 -1.6255467
000090 05 3e 8c bf f4 7f 13 c0 58 13 2b 3f 36 87 9d bf
       -1.0956427 -2.3046846 0.6682639 -1.2306888
0000a0 c5 a0 fd be ca 02 c0 be 72 b1 fb bd 9d d5 a5 bf
       -0.4953672 -0.37502128 -0.122897044 -1.2955815
0000b0 03 74 3c 3f 45 85 f2 3d 04 56 99 bf 6e 37 44 bf
       0.7361452 0.118418254 -1.1979375 -0.7664708
0000c0 ee cc ef bf 78 fb f1 be 66 dd b4 3d a1 b6 49 3f
       -1.8734415 -0.47262168 0.08831291 0.78794295
0000d0 9b e8 21 3e fd be 79 bf 79 43 29 bf b1 c5 7a be
       0.15811388 -0.9755705 -0.6611858 -0.24489476
0000e0 49 fc 5f 3e 90 44 a9 bf 6c fa 80 3f 83 41 fd 3d
       0.21873583 -1.3224049 1.0076423 0.12366011
0000f0 2c 0a 25 3e ac 18 ce bf 1c 84 35 be c0 0c a0 bf
       0.16117162 -1.6101279 -0.17726177 -1.2503891
000100 30 68 18 3f ca 5d 3b bf bc 8f cf 3e 3f 80 bb bf
       0.5953398 -0.73189986 0.40539348 -1.4648513
000110 ae 7e 79 bf 65 8f f7 3d 0b 95 da 3d 78 93 f2 be
       -0.9745892 0.12087897 0.10672959 -0.47378135
000120 2b 82 96 bf a1 de 9f 3e 42 0a f9 bf e1 9e a3 be
       -1.1758474 0.3122454 -1.9456255 -0.31957152
000130 a0 e4 1e 3f 8e 38 88 be 47 e6 1a c0 83 7e f7 bc
       0.62067604 -0.26605648 -2.420305 -0.030211693
000140 65 51 41 bf ac be e3 3e 91 a4 d1 bf 09 ca 25 3f
       -0.75514823 0.4448141 -1.6378347 0.64761406
000150 9f ce 26 bf 91 b9 c2 bf bc f3 30 c0 2b f6 66 3e
       -0.6515903 -1.521288 -2.7648764 0.22554843
000160 8f 31 34 bf 35 05 2a 3f c3 85 86 bf ca 15 ae be
       -0.7038812 0.66414195 -1.0509571 -0.34001
000170 38 5c 16 3f b1 1c da bf 2d 9d 02 bf a6 ff c5 bf
       0.58734465 -1.7040006 -0.5102108 -1.5468643
000180 67 21 2e bf 66 9f ec bf e6 86 c7 bf 28 b3 d3 3e
       -0.6801972 -1.8486145 -1.5588043 0.41347623
000190 f9 70 4d 3f 6e 5a b4 3e f4 f6 22 c0 39 0f 4b be
       0.8025051 0.35225242 -2.5463228 -0.19830026
0001a0 69 72 9f 3e ff 1f 75 bf ee 7a 0d 3f ac 4c b3 be
       0.31141976 -0.9575195 0.552657 -0.35019433
0001b0 93 52 8a bf ef 2a d0 3e 3e 38 0d c0 e9 d5 9a 3e
       -1.080645 0.40657756 -2.2065578 0.30241325
0001c0 0f d6 ba bf cf 65 a3 bd f6 7b 96 bf bc 0a 16 3f
       -1.4596575 -0.07978403 -1.175658 0.5861013
0001d0 23 20 a2 bf 9f d3 b6 3d f6 d6 1a c0 44 52 1d 3f
       -1.2666057 0.08927082 -2.4193702 0.6145365
0001e0 ed 2b 10 3e 7b 97 d9 bf 0d 93 d7 bf 7a 1a cb 3e
       0.14079256 -1.6999353 -1.6841751 0.39668638
0001f0 cc bc f9 bf 34 c8 21 3f 02 9a c3 bf 8b e4 2f 3f
       -1.9510741 0.6319611 -1.5281374 0.68708104
000200 85 57 cf 3e cf 38 c7 3d 44 e3 3c be d9 6b cb 3d
       0.4049646 0.09727632 -0.1844607 0.0993268
000210 13 4b 8c be db 69 7f bf b8 d6 30 c0 61 3c 94 bd
       -0.27401027 -0.997709 -2.7631054 -0.07238079
000220 5e bb 8c 3e bf c2 b3 3e b1 c8 79 be 33 0a 12 3e
       0.274867 0.35109517 -0.24392964 0.14261703
000230 35 3a dc bf e4 e3 e5 bf 41 15 49 be 4f 66 c6 3d
       -1.7205263 -1.7960172 -0.19637014 0.096874826

l3.bias f4 [18]
000000 b1 cf 1c 3b ed 85 05 be ec bd 98 be 02 b1 27 be
       0.0023927505 -0.1303937 -0.298324 -0.16376117
000010 81 0f 6c 3e 21 3c d1 3e 62 eb c0 3e 8a 07 88 3e
       0.2305279 0.40866187 0.37679583 0.26568252
000020 61 ed 4d 3e ae ec 53 3d 92 aa 17 bd 48 65 bd bc
       0.20110084 0.051739387 -0.037027903 -0.023119584
000030 14 15 a4 3e 3c 7d 82 be 00 a3 81 be 9c 58 94 bd
       0.3204733 -0.2548617 -0.25319672 -0.072434634
000040 f0 41 5f be a7 f5 44 3c
       -0.21802497 0.012021459
